…
2020-06-04 16:38:27.372733: I tensorflow/stream_executor/platform/default/dso_loader.cc:42] Successfully opened dynamic library libcublas.so.10.0
2020-06-04 16:38:27.628988: I tensorflow/stream_executor/platform/default/dso_loader.cc:42] Successfully opened dynamic library libcudnn.so.7
(327680, 2000, 3)
10.314160931635518 -11.244815117091042
1.0 -1.0
Model: "sequential"
_________________________________________________________________
Layer (type)                 Output Shape              Param #   
=================================================================
dense (Dense)                (None, 6400)              646400    
_________________________________________________________________
re_lu (ReLU)                 (None, 6400)              0         
_________________________________________________________________
reshape (Reshape)            (None, 25, 1, 256)        0         
_________________________________________________________________
batch_normalization (BatchNo (None, 25, 1, 256)        1024      
_________________________________________________________________
conv2d_transpose (Conv2DTran (None, 125, 1, 128)       3276928   
_________________________________________________________________
re_lu_1 (ReLU)               (None, 125, 1, 128)       0         
_________________________________________________________________
batch_normalization_1 (Batch (None, 125, 1, 128)       512       
_________________________________________________________________
conv2d_transpose_1 (Conv2DTr (None, 250, 1, 64)        819264    
_________________________________________________________________
re_lu_2 (ReLU)               (None, 250, 1, 64)        0         
_________________________________________________________________
batch_normalization_2 (Batch (None, 250, 1, 64)        256       
_________________________________________________________________
conv2d_transpose_2 (Conv2DTr (None, 500, 1, 32)        204832    
_________________________________________________________________
re_lu_3 (ReLU)               (None, 500, 1, 32)        0         
_________________________________________________________________
batch_normalization_3 (Batch (None, 500, 1, 32)        128       
_________________________________________________________________
conv2d_transpose_3 (Conv2DTr (None, 1000, 1, 16)       51216     
_________________________________________________________________
re_lu_4 (ReLU)               (None, 1000, 1, 16)       0         
_________________________________________________________________
batch_normalization_4 (Batch (None, 1000, 1, 16)       64        
_________________________________________________________________
conv2d_transpose_4 (Conv2DTr (None, 2000, 1, 3)        4803      
_________________________________________________________________
activation (Activation)      (None, 2000, 1, 3)        0         
_________________________________________________________________
reshape_1 (Reshape)          (None, 2000, 3)           0         
=================================================================
Total params: 5,005,427
Trainable params: 5,004,435
Non-trainable params: 992
_________________________________________________________________
Model: "sequential_1"
_________________________________________________________________
Layer (type)                 Output Shape              Param #   
=================================================================
conv1d (Conv1D)              (None, 1000, 16)          4816      
_________________________________________________________________
re_lu_5 (ReLU)               (None, 1000, 16)          0         
_________________________________________________________________
conv1d_1 (Conv1D)            (None, 500, 32)           51232     
_________________________________________________________________
re_lu_6 (ReLU)               (None, 500, 32)           0         
_________________________________________________________________
conv1d_2 (Conv1D)            (None, 250, 64)           204864    
_________________________________________________________________
re_lu_7 (ReLU)               (None, 250, 64)           0         
_________________________________________________________________
conv1d_3 (Conv1D)            (None, 125, 128)          819328    
_________________________________________________________________
re_lu_8 (ReLU)               (None, 125, 128)          0         
_________________________________________________________________
conv1d_4 (Conv1D)            (None, 25, 256)           3277056   
_________________________________________________________________
re_lu_9 (ReLU)               (None, 25, 256)           0         
_________________________________________________________________
flatten (Flatten)            (None, 6400)              0         
_________________________________________________________________
dense_1 (Dense)              (None, 1)                 6401      
=================================================================
Total params: 4,363,697
Trainable params: 4,363,697
Non-trainable params: 0
_________________________________________________________________
train for 10000 epochs

NCRITIC = 30

0 [D loss:    -12] [d_loss_test:    -13] [G loss:   -2.6]
1 [D loss:    -12] [d_loss_test:    -12] [G loss:   -1.7]
2 [D loss:    -11] [d_loss_test:    -11] [G loss:    1.7]
…
