…
2020-07-04 19:36:55.058656: I tensorflow/stream_executor/platform/default/dso_loader.cc:42] Successfully opened dynamic library libcublas.so.10.0
2020-07-04 19:36:55.319877: I tensorflow/stream_executor/platform/default/dso_loader.cc:42] Successfully opened dynamic library libcudnn.so.7
Importing Databases ... (327680, 2000, 1)
10.273698864467972 -9.970374739869616
1.0 -1.0
Done
Model: "sequential"
_________________________________________________________________
Layer (type)                 Output Shape              Param #   
=================================================================
dense (Dense)                (None, 3200)              323200    
_________________________________________________________________
re_lu (ReLU)                 (None, 3200)              0         
_________________________________________________________________
reshape (Reshape)            (None, 25, 1, 128)        0         
_________________________________________________________________
batch_normalization (BatchNo (None, 25, 1, 128)        512       
_________________________________________________________________
conv2d_transpose (Conv2DTran (None, 125, 1, 64)        2048064   
_________________________________________________________________
re_lu_1 (ReLU)               (None, 125, 1, 64)        0         
_________________________________________________________________
batch_normalization_1 (Batch (None, 125, 1, 64)        256       
_________________________________________________________________
conv2d_transpose_1 (Conv2DTr (None, 250, 1, 32)        512032    
_________________________________________________________________
re_lu_2 (ReLU)               (None, 250, 1, 32)        0         
_________________________________________________________________
batch_normalization_2 (Batch (None, 250, 1, 32)        128       
_________________________________________________________________
conv2d_transpose_2 (Conv2DTr (None, 500, 1, 16)        128016    
_________________________________________________________________
re_lu_3 (ReLU)               (None, 500, 1, 16)        0         
_________________________________________________________________
batch_normalization_3 (Batch (None, 500, 1, 16)        64        
_________________________________________________________________
conv2d_transpose_3 (Conv2DTr (None, 1000, 1, 8)        32008     
_________________________________________________________________
re_lu_4 (ReLU)               (None, 1000, 1, 8)        0         
_________________________________________________________________
batch_normalization_4 (Batch (None, 1000, 1, 8)        32        
_________________________________________________________________
conv2d_transpose_4 (Conv2DTr (None, 2000, 1, 1)        2001      
_________________________________________________________________
activation (Activation)      (None, 2000, 1, 1)        0         
_________________________________________________________________
reshape_1 (Reshape)          (None, 2000, 1)           0         
=================================================================
Total params: 3,046,313
Trainable params: 3,045,817
Non-trainable params: 496
_________________________________________________________________
Model: "sequential_1"
_________________________________________________________________
Layer (type)                 Output Shape              Param #   
=================================================================
conv1d (Conv1D)              (None, 1000, 8)           2008      
_________________________________________________________________
re_lu_5 (ReLU)               (None, 1000, 8)           0         
_________________________________________________________________
conv1d_1 (Conv1D)            (None, 500, 16)           32016     
_________________________________________________________________
re_lu_6 (ReLU)               (None, 500, 16)           0         
_________________________________________________________________
conv1d_2 (Conv1D)            (None, 250, 32)           128032    
_________________________________________________________________
re_lu_7 (ReLU)               (None, 250, 32)           0         
_________________________________________________________________
conv1d_3 (Conv1D)            (None, 125, 64)           512064    
_________________________________________________________________
re_lu_8 (ReLU)               (None, 125, 64)           0         
_________________________________________________________________
conv1d_4 (Conv1D)            (None, 25, 128)           2048128   
_________________________________________________________________
re_lu_9 (ReLU)               (None, 25, 128)           0         
_________________________________________________________________
flatten (Flatten)            (None, 3200)              0         
_________________________________________________________________
dense_1 (Dense)              (None, 1)                 3201      
=================================================================
Total params: 2,725,449
Trainable params: 2,725,449
Non-trainable params: 0
_________________________________________________________________
Train for 200 epochs
Generator iterations per epoch: 104

NCRITIC = 5

Epoch:     0, Gen_Iter:      0 [D loss: 2.82e+00] [d_loss_test: 2.34e+00] [G loss: -4.21e-02]
Epoch:     0, Gen_Iter:      1 [D loss: 6.27e-02] [d_loss_test: 7.22e-02] [G loss: -3.78e-01]
…
