…
2020-06-29 22:46:35.615895: I tensorflow/stream_executor/platform/default/dso_loader.cc:42] Successfully opened dynamic library libcublas.so.10.0
2020-06-29 22:46:35.867174: I tensorflow/stream_executor/platform/default/dso_loader.cc:42] Successfully opened dynamic library libcudnn.so.7
(327680, 2000, 1)
3.8589849494311728 -3.855631667882468
1.0 -1.0
Model: "model"
_________________________________________________________________
Layer (type)                 Output Shape              Param #   
=================================================================
input_1 (InputLayer)         [(None, 100)]             0         
_________________________________________________________________
dense (Dense)                (None, 3200)              323200    
_________________________________________________________________
re_lu (ReLU)                 (None, 3200)              0         
_________________________________________________________________
reshape (Reshape)            (None, 25, 1, 128)        0         
_________________________________________________________________
batch_normalization (BatchNo (None, 25, 1, 128)        512       
_________________________________________________________________
conv2d_transpose (Conv2DTran (None, 125, 1, 64)        819264    
_________________________________________________________________
re_lu_1 (ReLU)               (None, 125, 1, 64)        0         
_________________________________________________________________
batch_normalization_1 (Batch (None, 125, 1, 64)        256       
_________________________________________________________________
conv2d_transpose_1 (Conv2DTr (None, 250, 1, 32)        204832    
_________________________________________________________________
re_lu_2 (ReLU)               (None, 250, 1, 32)        0         
_________________________________________________________________
batch_normalization_2 (Batch (None, 250, 1, 32)        128       
_________________________________________________________________
conv2d_transpose_2 (Conv2DTr (None, 500, 1, 16)        51216     
_________________________________________________________________
re_lu_3 (ReLU)               (None, 500, 1, 16)        0         
_________________________________________________________________
batch_normalization_3 (Batch (None, 500, 1, 16)        64        
_________________________________________________________________
conv2d_transpose_3 (Conv2DTr (None, 1000, 1, 8)        12808     
_________________________________________________________________
re_lu_4 (ReLU)               (None, 1000, 1, 8)        0         
_________________________________________________________________
batch_normalization_4 (Batch (None, 1000, 1, 8)        32        
_________________________________________________________________
conv2d_transpose_4 (Conv2DTr (None, 2000, 1, 1)        801       
_________________________________________________________________
activation (Activation)      (None, 2000, 1, 1)        0         
_________________________________________________________________
lambda (Lambda)              (None, 2000, 1, 1)        0         
_________________________________________________________________
reshape_1 (Reshape)          (None, 2000, 1)           0         
=================================================================
Total params: 1,413,113
Trainable params: 1,412,617
Non-trainable params: 496
_________________________________________________________________
Model: "sequential"
_________________________________________________________________
Layer (type)                 Output Shape              Param #   
=================================================================
conv1d (Conv1D)              (None, 1000, 8)           808       
_________________________________________________________________
re_lu_5 (ReLU)               (None, 1000, 8)           0         
_________________________________________________________________
conv1d_1 (Conv1D)            (None, 500, 16)           12816     
_________________________________________________________________
re_lu_6 (ReLU)               (None, 500, 16)           0         
_________________________________________________________________
conv1d_2 (Conv1D)            (None, 250, 32)           51232     
_________________________________________________________________
re_lu_7 (ReLU)               (None, 250, 32)           0         
_________________________________________________________________
conv1d_3 (Conv1D)            (None, 125, 64)           204864    
_________________________________________________________________
re_lu_8 (ReLU)               (None, 125, 64)           0         
_________________________________________________________________
conv1d_4 (Conv1D)            (None, 25, 128)           819328    
_________________________________________________________________
re_lu_9 (ReLU)               (None, 25, 128)           0         
_________________________________________________________________
flatten (Flatten)            (None, 3200)              0         
_________________________________________________________________
dense_1 (Dense)              (None, 1)                 3201      
=================================================================
Total params: 1,092,249
Trainable params: 1,092,249
Non-trainable params: 0
_________________________________________________________________
train for 6000 epochs

NCRITIC = 30

0 [D loss:   0.96] [d_loss_test:   0.47] [G loss: -0.0013]
1 [D loss:    0.5] [d_loss_test:   0.48] [G loss:   -0.1]
2 [D loss:    1.4] [d_loss_test:    1.4] [G loss:  -0.31]
…
